[2025-12-15 16:00:28,083] INFO [src.utils:19] Loading backbone [qwen3_vl] from Qwen/Qwen3-VL-8B-Instruct
`torch_dtype` is deprecated! Use `dtype` instead!
Loading checkpoint shards: 100%|██████████| 4/4 [00:00<00:00, 34.79it/s]
[2025-12-15 16:00:28,834] INFO [src.utils:19] Loading lora adapter from Qwen3VLForConditionalGeneration(
  (model): Qwen3VLModel(
    (visual): Qwen3VLVisionModel(
      (patch_embed): Qwen3VLVisionPatchEmbed(
        (proj): Conv3d(3, 1152, kernel_size=(2, 16, 16), stride=(2, 16, 16))
      )
      (pos_embed): Embedding(2304, 1152)
      (rotary_pos_emb): Qwen3VLVisionRotaryEmbedding()
      (blocks): ModuleList(
        (0-26): 27 x Qwen3VLVisionBlock(
          (norm1): LayerNorm((1152,), eps=1e-06, elementwise_affine=True)
          (norm2): LayerNorm((1152,), eps=1e-06, elementwise_affine=True)
          (attn): Qwen3VLVisionAttention(
            (qkv): Linear(in_features=1152, out_features=3456, bias=True)
            (proj): Linear(in_features=1152, out_features=1152, bias=True)
          )
          (mlp): Qwen3VLVisionMLP(
            (linear_fc1): Linear(in_features=1152, out_features=4304, bias=True)
            (linear_fc2): Linear(in_features=4304, out_features=1152, bias=True)
            (act_fn): GELUTanh()
          )
        )
      )
      (merger): Qwen3VLVisionPatchMerger(
        (norm): LayerNorm((1152,), eps=1e-06, elementwise_affine=True)
        (linear_fc1): Linear(in_features=4608, out_features=4608, bias=True)
        (act_fn): GELU(approximate='none')
        (linear_fc2): Linear(in_features=4608, out_features=4096, bias=True)
      )
      (deepstack_merger_list): ModuleList(
        (0-2): 3 x Qwen3VLVisionPatchMerger(
          (norm): LayerNorm((4608,), eps=1e-06, elementwise_affine=True)
          (linear_fc1): Linear(in_features=4608, out_features=4608, bias=True)
          (act_fn): GELU(approximate='none')
          (linear_fc2): Linear(in_features=4608, out_features=4096, bias=True)
        )
      )
    )
    (language_model): Qwen3VLTextModel(
      (embed_tokens): Embedding(151936, 4096)
      (layers): ModuleList(
        (0-35): 36 x Qwen3VLTextDecoderLayer(
          (self_attn): Qwen3VLTextAttention(
            (q_proj): Linear(in_features=4096, out_features=4096, bias=False)
            (k_proj): Linear(in_features=4096, out_features=1024, bias=False)
            (v_proj): Linear(in_features=4096, out_features=1024, bias=False)
            (o_proj): Linear(in_features=4096, out_features=4096, bias=False)
            (q_norm): Qwen3VLTextRMSNorm((128,), eps=1e-06)
            (k_norm): Qwen3VLTextRMSNorm((128,), eps=1e-06)
          )
          (mlp): Qwen3VLTextMLP(
            (gate_proj): Linear(in_features=4096, out_features=12288, bias=False)
            (up_proj): Linear(in_features=4096, out_features=12288, bias=False)
            (down_proj): Linear(in_features=12288, out_features=4096, bias=False)
            (act_fn): SiLUActivation()
          )
          (input_layernorm): Qwen3VLTextRMSNorm((4096,), eps=1e-06)
          (post_attention_layernorm): Qwen3VLTextRMSNorm((4096,), eps=1e-06)
        )
      )
      (norm): Qwen3VLTextRMSNorm((4096,), eps=1e-06)
      (rotary_emb): Qwen3VLTextRotaryEmbedding()
    )
  )
  (lm_head): Linear(in_features=4096, out_features=151936, bias=False)
)
[2025-12-15 16:02:46,461] INFO [src.utils:10] rank0: model_backbone: qwen3_vl
[2025-12-15 16:02:46,462] INFO [src.utils:19] Loading processor from: Qwen/Qwen3-VL-8B-Instruct
[2025-12-15 16:02:53,929] INFO [src.utils:19] Loaded mmeb/MSCOCO_t2i dataset with 100000 samples
[2025-12-15 16:02:53,929] INFO [src.utils:19] 		Dataset#0 (dataset_parser=mmeb): MSCOCO_t2i, num_rows=100000, prob=50.0
…
