…
You are attempting to use Flash Attention 2.0 with a model not initialized on GPU. Make sure to move the model to GPU after initializing it on CPU with `model.to('cuda')`.
Loading checkpoint shards:   0%|          | 0/2 [00:00<?, ?it/s]Loading checkpoint shards:  50%|â–ˆâ–ˆâ–ˆâ–ˆâ–ˆ     | 1/2 [00:00<00:00,  4.19it/s]Loading checkpoint shards: 100%|â–ˆâ–ˆâ–ˆâ–ˆâ–ˆâ–ˆâ–ˆâ–ˆâ–ˆâ–ˆ| 2/2 [00:00<00:00,  8.03it/s]
[2025-10-21 01:24:04,967] INFO [src.utils:19] Enabling TailTokenWrapper (learnable tail token).
[2025-10-21 01:24:04,972] INFO [src.utils:19] Loading lora adapter from Qwen2VLForConditionalGeneration(
  (visual): Qwen2VisionTransformerPretrainedModel(
    (patch_embed): PatchEmbed(
      (proj): Conv3d(3, 1280, kernel_size=(2, 14, 14), stride=(2, 14, 14), bias=False)
    )
    (rotary_pos_emb): VisionRotaryEmbedding()
    (blocks): ModuleList(
      (0-31): 32 x Qwen2VLVisionBlock(
        (norm1): LayerNorm((1280,), eps=1e-06, elementwise_affine=True)
        (norm2): LayerNorm((1280,), eps=1e-06, elementwise_affine=True)
        (attn): VisionFlashAttention2(
          (qkv): Linear(in_features=1280, out_features=3840, bias=True)
          (proj): Linear(in_features=1280, out_features=1280, bias=True)
        )
        (mlp): VisionMlp(
          (fc1): Linear(in_features=1280, out_features=5120, bias=True)
          (act): QuickGELUActivation()
          (fc2): Linear(in_features=5120, out_features=1280, bias=True)
        )
      )
    )
    (merger): PatchMerger(
      (ln_q): LayerNorm((1280,), eps=1e-06, elementwise_affine=True)
      (mlp): Sequential(
        (0): Linear(in_features=5120, out_features=5120, bias=True)
        (1): GELU(approximate='none')
        (2): Linear(in_features=5120, out_features=1536, bias=True)
      )
    )
  )
  (model): Qwen2VLModel(
    (embed_tokens): Embedding(151936, 1536)
    (layers): ModuleList(
      (0-27): 28 x TailIsolatedBlock(
        (block): Qwen2VLDecoderLayer(
          (self_attn): Qwen2VLFlashAttention2(
            (q_proj): Linear(in_features=1536, out_features=1536, bias=True)
            (k_proj): Linear(in_features=1536, out_features=256, bias=True)
            (v_proj): Linear(in_features=1536, out_features=256, bias=True)
            (o_proj): Linear(in_features=1536, out_features=1536, bias=False)
            (rotary_emb): Qwen2VLRotaryEmbedding()
          )
          (mlp): Qwen2MLP(
            (gate_proj): Linear(in_features=1536, out_features=8960, bias=False)
            (up_proj): Linear(in_features=1536, out_features=8960, bias=False)
            (down_proj): Linear(in_features=8960, out_features=1536, bias=False)
            (act_fn): SiLU()
          )
          (input_layernorm): Qwen2RMSNorm((1536,), eps=1e-06)
          (post_attention_layernorm): Qwen2RMSNorm((1536,), eps=1e-06)
        )
      )
    )
    (norm): Qwen2RMSNorm((1536,), eps=1e-06)
    (rotary_emb): Qwen2VLRotaryEmbedding()
  )
  (lm_head): Linear(in_features=1536, out_features=151936, bias=False)
)
[2025-10-21 01:24:13,945] INFO [src.utils:10] rank1: model_backbone: qwen2_vl
[2025-10-21 01:24:15,143] INFO [src.utils:10] rank0: model_backbone: qwen2_vl
[2025-10-21 01:24:15,144] INFO [src.utils:19] Loading processor from: Qwen/Qwen2-VL-2B-Instruct
[2025-10-21 01:24:19,330] INFO [src.utils:19] Loaded mmeb/MSCOCO_t2i dataset with 100000 samples
…
