…
You are attempting to use Flash Attention 2.0 with a model not initialized on GPU. Make sure to move the model to GPU after initializing it on CPU with `model.to('cuda')`.
Loading checkpoint shards:   0%|          | 0/2 [00:00<?, ?it/s]Loading checkpoint shards:  50%|â–ˆâ–ˆâ–ˆâ–ˆâ–ˆ     | 1/2 [00:00<00:00,  4.26it/s]Loading checkpoint shards: 100%|â–ˆâ–ˆâ–ˆâ–ˆâ–ˆâ–ˆâ–ˆâ–ˆâ–ˆâ–ˆ| 2/2 [00:00<00:00,  8.16it/s]
[2025-10-22 20:08:19,906] INFO [src.utils:19] Loading lora adapter from Qwen2VLForConditionalGeneration(
  (visual): Qwen2VisionTransformerPretrainedModel(
    (patch_embed): PatchEmbed(
      (proj): Conv3d(3, 1280, kernel_size=(2, 14, 14), stride=(2, 14, 14), bias=False)
    )
    (rotary_pos_emb): VisionRotaryEmbedding()
    (blocks): ModuleList(
      (0-31): 32 x Qwen2VLVisionBlock(
        (norm1): LayerNorm((1280,), eps=1e-06, elementwise_affine=True)
        (norm2): LayerNorm((1280,), eps=1e-06, elementwise_affine=True)
        (attn): VisionFlashAttention2(
          (qkv): Linear(in_features=1280, out_features=3840, bias=True)
          (proj): Linear(in_features=1280, out_features=1280, bias=True)
        )
        (mlp): VisionMlp(
          (fc1): Linear(in_features=1280, out_features=5120, bias=True)
          (act): QuickGELUActivation()
          (fc2): Linear(in_features=5120, out_features=1280, bias=True)
        )
      )
    )
    (merger): PatchMerger(
      (ln_q): LayerNorm((1280,), eps=1e-06, elementwise_affine=True)
      (mlp): Sequential(
        (0): Linear(in_features=5120, out_features=5120, bias=True)
        (1): GELU(approximate='none')
        (2): Linear(in_features=5120, out_features=1536, bias=True)
      )
    )
  )
  (model): Qwen2VLModel(
    (embed_tokens): Embedding(151936, 1536)
    (layers): ModuleList(
      (0-27): 28 x Qwen2VLDecoderLayer(
        (self_attn): Qwen2VLFlashAttention2(
          (q_proj): Linear(in_features=1536, out_features=1536, bias=True)
          (k_proj): Linear(in_features=1536, out_features=256, bias=True)
          (v_proj): Linear(in_features=1536, out_features=256, bias=True)
          (o_proj): Linear(in_features=1536, out_features=1536, bias=False)
          (rotary_emb): Qwen2VLRotaryEmbedding()
        )
        (mlp): Qwen2MLP(
          (gate_proj): Linear(in_features=1536, out_features=8960, bias=False)
          (up_proj): Linear(in_features=1536, out_features=8960, bias=False)
          (down_proj): Linear(in_features=8960, out_features=1536, bias=False)
          (act_fn): SiLU()
        )
        (input_layernorm): Qwen2RMSNorm((1536,), eps=1e-06)
        (post_attention_layernorm): Qwen2RMSNorm((1536,), eps=1e-06)
      )
    )
    (norm): Qwen2RMSNorm((1536,), eps=1e-06)
    (rotary_emb): Qwen2VLRotaryEmbedding()
  )
  (lm_head): Linear(in_features=1536, out_features=151936, bias=False)
)
[2025-10-22 20:08:28,846] INFO [src.utils:10] rank1: model_backbone: qwen2_vl
[2025-10-22 20:08:29,944] INFO [src.utils:10] rank0: model_backbone: qwen2_vl
[2025-10-22 20:08:29,944] INFO [src.utils:19] Loading processor from: Qwen/Qwen2-VL-2B-Instruct
[2025-10-22 20:08:34,253] INFO [src.utils:19] Loaded mmeb/MSCOCO_t2i dataset with 100000 samples
…
  1%|          | 49/6000 [02:17<4:36:02,  2.78s/it]  1%|          | 50/6000 [02:20<4:39:33,  2.82s/it]                                                   {'loss': 2.7778, 'grad_norm': 49.39896774291992, 'learning_rate': 2.5e-05, 'epoch': 0.01}
  1%|          | 50/6000 [02:20<4:39:33,  2.82s/it][2025-10-22 20:10:57,685] INFO [src.utils:19] Saving model to /home/infres/zzhu-24/PRIM/VLM2Vec/experiments/public/exps/train/test3-Qwen/Qwen2-VL-2B-Instruct/checkpoint-50
[2025-10-22 20:10:57,686] INFO [src.utils:19] TailTokenDetachPrefixWrapper(
  (base): PeftModel(
    (base_model): LoraModel(
      (model): Qwen2VLForConditionalGeneration(
        (visual): Qwen2VisionTransformerPretrainedModel(
          (patch_embed): PatchEmbed(
            (proj): Conv3d(3, 1280, kernel_size=(2, 14, 14), stride=(2, 14, 14), bias=False)
          )
          (rotary_pos_emb): VisionRotaryEmbedding()
          (blocks): ModuleList(
            (0-31): 32 x Qwen2VLVisionBlock(
              (norm1): LayerNorm((1280,), eps=1e-06, elementwise_affine=True)
              (norm2): LayerNorm((1280,), eps=1e-06, elementwise_affine=True)
              (attn): VisionFlashAttention2(
                (qkv): Linear(in_features=1280, out_features=3840, bias=True)
                (proj): Linear(in_features=1280, out_features=1280, bias=True)
              )
              (mlp): VisionMlp(
                (fc1): Linear(in_features=1280, out_features=5120, bias=True)
                (act): QuickGELUActivation()
                (fc2): Linear(in_features=5120, out_features=1280, bias=True)
              )
            )
          )
          (merger): PatchMerger(
            (ln_q): LayerNorm((1280,), eps=1e-06, elementwise_affine=True)
            (mlp): Sequential(
              (0): Linear(in_features=5120, out_features=5120, bias=True)
              (1): GELU(approximate='none')
              (2): Linear(in_features=5120, out_features=1536, bias=True)
            )
          )
        )
        (model): Qwen2VLModel(
          (embed_tokens): Embedding(151936, 1536)
          (layers): ModuleList(
            (0-27): 28 x Qwen2VLDecoderLayer(
              (self_attn): Qwen2VLFlashAttention2(
                (q_proj): lora.Linear(
                  (base_layer): Linear(in_features=1536, out_features=1536, bias=True)
                  (lora_dropout): ModuleDict(
                    (default): Dropout(p=0.1, inplace=False)
                  )
                  (lora_A): ModuleDict(
                    (default): Linear(in_features=1536, out_features=16, bias=False)
                  )
                  (lora_B): ModuleDict(
                    (default): Linear(in_features=16, out_features=1536, bias=False)
                  )
                  (lora_embedding_A): ParameterDict()
                  (lora_embedding_B): ParameterDict()
                  (lora_magnitude_vector): ModuleDict(
                    (default): lora.dora.DoraLinearLayer()
                  )
                )
                (k_proj): lora.Linear(
                  (base_layer): Linear(in_features=1536, out_features=256, bias=True)
                  (lora_dropout): ModuleDict(
                    (default): Dropout(p=0.1, inplace=False)
                  )
                  (lora_A): ModuleDict(
                    (default): Linear(in_features=1536, out_features=16, bias=False)
                  )
                  (lora_B): ModuleDict(
                    (default): Linear(in_features=16, out_features=256, bias=False)
                  )
                  (lora_embedding_A): ParameterDict()
                  (lora_embedding_B): ParameterDict()
                  (lora_magnitude_vector): ModuleDict(
                    (default): lora.dora.DoraLinearLayer()
                  )
                )
                (v_proj): lora.Linear(
                  (base_layer): Linear(in_features=1536, out_features=256, bias=True)
                  (lora_dropout): ModuleDict(
                    (default): Dropout(p=0.1, inplace=False)
                  )
                  (lora_A): ModuleDict(
                    (default): Linear(in_features=1536, out_features=16, bias=False)
                  )
                  (lora_B): ModuleDict(
                    (default): Linear(in_features=16, out_features=256, bias=False)
                  )
                  (lora_embedding_A): ParameterDict()
                  (lora_embedding_B): ParameterDict()
                  (lora_magnitude_vector): ModuleDict(
                    (default): lora.dora.DoraLinearLayer()
                  )
                )
                (o_proj): lora.Linear(
                  (base_layer): Linear(in_features=1536, out_features=1536, bias=False)
                  (lora_dropout): ModuleDict(
                    (default): Dropout(p=0.1, inplace=False)
                  )
                  (lora_A): ModuleDict(
                    (default): Linear(in_features=1536, out_features=16, bias=False)
                  )
                  (lora_B): ModuleDict(
                    (default): Linear(in_features=16, out_features=1536, bias=False)
                  )
                  (lora_embedding_A): ParameterDict()
                  (lora_embedding_B): ParameterDict()
                  (lora_magnitude_vector): ModuleDict(
                    (default): lora.dora.DoraLinearLayer()
                  )
                )
                (rotary_emb): Qwen2VLRotaryEmbedding()
              )
              (mlp): Qwen2MLP(
                (gate_proj): Linear(in_features=1536, out_features=8960, bias=False)
                (up_proj): Linear(in_features=1536, out_features=8960, bias=False)
                (down_proj): lora.Linear(
                  (base_layer): Linear(in_features=8960, out_features=1536, bias=False)
                  (lora_dropout): ModuleDict(
                    (default): Dropout(p=0.1, inplace=False)
                  )
                  (lora_A): ModuleDict(
                    (default): Linear(in_features=8960, out_features=16, bias=False)
                  )
                  (lora_B): ModuleDict(
                    (default): Linear(in_features=16, out_features=1536, bias=False)
                  )
                  (lora_embedding_A): ParameterDict()
                  (lora_embedding_B): ParameterDict()
                  (lora_magnitude_vector): ModuleDict(
                    (default): lora.dora.DoraLinearLayer()
                  )
                )
                (act_fn): SiLU()
              )
              (input_layernorm): Qwen2RMSNorm((1536,), eps=1e-06)
              (post_attention_layernorm): Qwen2RMSNorm((1536,), eps=1e-06)
            )
          )
          (norm): Qwen2RMSNorm((1536,), eps=1e-06)
          (rotary_emb): Qwen2VLRotaryEmbedding()
        )
        (lm_head): Linear(in_features=1536, out_features=151936, bias=False)
      )
    )
  )
)
Trainer.tokenizer is now deprecated. You should use Trainer.processing_class instead.
Trainer.tokenizer is now deprecated. You should use Trainer.processing_class instead.
  1%|          | 51/6000 [02:25<5:41:17,  3.44s/it]                                                   {'loss': 2.7967, 'grad_norm': 13.296794891357422, 'learning_rate': 2.5500000000000003e-05, 'epoch': 0.01}
…
