…
2/3 [01:13<00:36, 36.07s/it]Loading checkpoint shards: 100%|â–ˆâ–ˆâ–ˆâ–ˆâ–ˆâ–ˆâ–ˆâ–ˆâ–ˆâ–ˆ| 3/3 [01:16<00:00, 21.80s/it]Loading checkpoint shards: 100%|â–ˆâ–ˆâ–ˆâ–ˆâ–ˆâ–ˆâ–ˆâ–ˆâ–ˆâ–ˆ| 3/3 [01:16<00:00, 25.59s/it]
Loading checkpoint shards: 100%|â–ˆâ–ˆâ–ˆâ–ˆâ–ˆâ–ˆâ–ˆâ–ˆâ–ˆâ–ˆ| 3/3 [01:19<00:00, 22.33s/it]Loading checkpoint shards: 100%|â–ˆâ–ˆâ–ˆâ–ˆâ–ˆâ–ˆâ–ˆâ–ˆâ–ˆâ–ˆ| 3/3 [01:19<00:00, 26.38s/it]
[2025-11-03 14:29:34,506] INFO [src.utils:19] Loading lora adapter from Qwen2VLForConditionalGeneration(
  (visual): Qwen2VisionTransformerPretrainedModel(
    (patch_embed): PatchEmbed(
      (proj): Conv3d(3, 1280, kernel_size=(2, 14, 14), stride=(2, 14, 14), bias=False)
    )
    (rotary_pos_emb): VisionRotaryEmbedding()
    (blocks): ModuleList(
      (0-31): 32 x Qwen2VLVisionBlock(
        (norm1): LayerNorm((1280,), eps=1e-06, elementwise_affine=True)
        (norm2): LayerNorm((1280,), eps=1e-06, elementwise_affine=True)
        (attn): VisionFlashAttention2(
          (qkv): Linear(in_features=1280, out_features=3840, bias=True)
          (proj): Linear(in_features=1280, out_features=1280, bias=True)
        )
        (mlp): VisionMlp(
          (fc1): Linear(in_features=1280, out_features=5120, bias=True)
          (act): QuickGELUActivation()
          (fc2): Linear(in_features=5120, out_features=1280, bias=True)
        )
      )
    )
    (merger): PatchMerger(
      (ln_q): LayerNorm((1280,), eps=1e-06, elementwise_affine=True)
      (mlp): Sequential(
        (0): Linear(in_features=5120, out_features=5120, bias=True)
        (1): GELU(approximate='none')
        (2): Linear(in_features=5120, out_features=1536, bias=True)
      )
    )
  )
  (model): Qwen2VLModel(
    (embed_tokens): Embedding(151936, 1536)
    (layers): ModuleList(
      (0-27): 28 x Qwen2VLDecoderLayer(
        (self_attn): Qwen2VLFlashAttention2(
          (q_proj): Linear(in_features=1536, out_features=1536, bias=True)
          (k_proj): Linear(in_features=1536, out_features=256, bias=True)
          (v_proj): Linear(in_features=1536, out_features=256, bias=True)
          (o_proj): Linear(in_features=1536, out_features=1536, bias=False)
          (rotary_emb): Qwen2VLRotaryEmbedding()
        )
        (mlp): Qwen2MLP(
          (gate_proj): Linear(in_features=1536, out_features=8960, bias=False)
          (up_proj): Linear(in_features=1536, out_features=8960, bias=False)
          (down_proj): Linear(in_features=8960, out_features=1536, bias=False)
          (act_fn): SiLU()
        )
        (input_layernorm): Qwen2RMSNorm((1536,), eps=1e-06)
        (post_attention_layernorm): Qwen2RMSNorm((1536,), eps=1e-06)
      )
    )
    (norm): Qwen2RMSNorm((1536,), eps=1e-06)
    (rotary_emb): Qwen2VLRotaryEmbedding()
  )
  (lm_head): Linear(in_features=1536, out_features=151936, bias=False)
)
[2025-11-03 14:29:44,712] INFO [src.utils:10] rank1: model_backbone: qwen2_vl
[2025-11-03 14:29:44,713] INFO [src.utils:10] rank0: model_backbone: qwen2_vl
[2025-11-03 14:29:44,714] INFO [src.utils:19] Loading processor from: Alibaba-NLP/gme-Qwen2-VL-2B-Instruct
[2025-11-03 14:29:49,457] INFO [src.utils:19] Loaded mmeb/MSCOCO_t2i dataset with 100000 samples
…
