[2025-11-03 16:55:32,311] INFO [src.utils:19] PeftModel(
  (base_model): LoraModel(
    (model): Qwen2VLForConditionalGeneration(
      (visual): Qwen2VisionTransformerPretrainedModel(
        (patch_embed): PatchEmbed(
          (proj): Conv3d(3, 1280, kernel_size=(2, 14, 14), stride=(2, 14, 14), bias=False)
        )
        (rotary_pos_emb): VisionRotaryEmbedding()
        (blocks): ModuleList(
          (0-31): 32 x Qwen2VLVisionBlock(
            (norm1): LayerNorm((1280,), eps=1e-06, elementwise_affine=True)
            (norm2): LayerNorm((1280,), eps=1e-06, elementwise_affine=True)
            (attn): VisionFlashAttention2(
              (qkv): Linear(in_features=1280, out_features=3840, bias=True)
              (proj): Linear(in_features=1280, out_features=1280, bias=True)
            )
            (mlp): VisionMlp(
              (fc1): Linear(in_features=1280, out_features=5120, bias=True)
              (act): QuickGELUActivation()
              (fc2): Linear(in_features=5120, out_features=1280, bias=True)
            )
          )
        )
        (merger): PatchMerger(
          (ln_q): LayerNorm((1280,), eps=1e-06, elementwise_affine=True)
          (mlp): Sequential(
            (0): Linear(in_features=5120, out_features=5120, bias=True)
            (1): GELU(approximate='none')
            (2): Linear(in_features=5120, out_features=1536, bias=True)
          )
        )
      )
      (model): Qwen2VLModel(
        (embed_tokens): Embedding(151936, 1536)
        (layers): ModuleList(
          (0-27): 28 x Qwen2VLDecoderLayer(
            (self_attn): Qwen2VLFlashAttention2(
              (q_proj): lora.Linear(
                (base_layer): Linear(in_features=1536, out_features=1536, bias=True)
                (lora_dropout): ModuleDict(
                  (default): Dropout(p=0.1, inplace=False)
                )
                (lora_A): ModuleDict(
                  (default): Linear(in_features=1536, out_features=16, bias=False)
                )
                (lora_B): ModuleDict(
                  (default): Linear(in_features=16, out_features=1536, bias=False)
                )
                (lora_embedding_A): ParameterDict()
                (lora_embedding_B): ParameterDict()
                (lora_magnitude_vector): ModuleDict(
                  (default): lora.dora.DoraLinearLayer()
                )
              )
              (k_proj): lora.Linear(
                (base_layer): Linear(in_features=1536, out_features=256, bias=True)
                (lora_dropout): ModuleDict(
                  (default): Dropout(p=0.1, inplace=False)
                )
                (lora_A): ModuleDict(
                  (default): Linear(in_features=1536, out_features=16, bias=False)
                )
                (lora_B): ModuleDict(
                  (default): Linear(in_features=16, out_features=256, bias=False)
                )
                (lora_embedding_A): ParameterDict()
                (lora_embedding_B): ParameterDict()
                (lora_magnitude_vector): ModuleDict(
                  (default): lora.dora.DoraLinearLayer()
                )
              )
              (v_proj): lora.Linear(
                (base_layer): Linear(in_features=1536, out_features=256, bias=True)
                (lora_dropout): ModuleDict(
                  (default): Dropout(p=0.1, inplace=False)
                )
                (lora_A): ModuleDict(
                  (default): Linear(in_features=1536, out_features=16, bias=False)
                )
                (lora_B): ModuleDict(
                  (default): Linear(in_features=16, out_features=256, bias=False)
                )
                (lora_embedding_A): ParameterDict()
                (lora_embedding_B): ParameterDict()
                (lora_magnitude_vector): ModuleDict(
                  (default): lora.dora.DoraLinearLayer()
                )
              )
              (o_proj): lora.Linear(
                (base_layer): Linear(in_features=1536, out_features=1536, bias=False)
                (lora_dropout): ModuleDict(
                  (default): Dropout(p=0.1, inplace=False)
                )
                (lora_A): ModuleDict(
                  (default): Linear(in_features=1536, out_features=16, bias=False)
                )
                (lora_B): ModuleDict(
                  (default): Linear(in_features=16, out_features=1536, bias=False)
                )
                (lora_embedding_A): ParameterDict()
                (lora_embedding_B): ParameterDict()
                (lora_magnitude_vector): ModuleDict(
                  (default): lora.dora.DoraLinearLayer()
                )
              )
              (rotary_emb): Qwen2VLRotaryEmbedding()
            )
            (mlp): Qwen2MLP(
              (gate_proj): Linear(in_features=1536, out_features=8960, bias=False)
              (up_proj): Linear(in_features=1536, out_features=8960, bias=False)
              (down_proj): lora.Linear(
                (base_layer): Linear(in_features=8960, out_features=1536, bias=False)
                (lora_dropout): ModuleDict(
                  (default): Dropout(p=0.1, inplace=False)
                )
                (lora_A): ModuleDict(
                  (default): Linear(in_features=8960, out_features=16, bias=False)
                )
                (lora_B): ModuleDict(
                  (default): Linear(in_features=16, out_features=1536, bias=False)
                )
                (lora_embedding_A): ParameterDict()
                (lora_embedding_B): ParameterDict()
                (lora_magnitude_vector): ModuleDict(
                  (default): lora.dora.DoraLinearLayer()
                )
              )
              (act_fn): SiLU()
            )
            (input_layernorm): Qwen2RMSNorm((1536,), eps=1e-06)
            (post_attention_layernorm): Qwen2RMSNorm((1536,), eps=1e-06)
          )
        )
        (norm): Qwen2RMSNorm((1536,), eps=1e-06)
        (rotary_emb): Qwen2VLRotaryEmbedding()
      )
      (lm_head): Linear(in_features=1536, out_features=151936, bias=False)
    )
  )
)