…
You are attempting to use Flash Attention 2.0 with a model not initialized on GPU. Make sure to move the model to GPU after initializing it on CPU with `model.to('cuda')`.
Loading checkpoint shards:   0%|          | 0/2 [00:00<?, ?it/s]Loading checkpoint shards:  50%|â–ˆâ–ˆâ–ˆâ–ˆâ–ˆ     | 1/2 [00:00<00:00,  6.03it/s]Loading checkpoint shards: 100%|â–ˆâ–ˆâ–ˆâ–ˆâ–ˆâ–ˆâ–ˆâ–ˆâ–ˆâ–ˆ| 2/2 [00:00<00:00, 11.51it/s]
[2025-11-13 00:59:00,830] INFO [src.utils:19] Loading lora adapter from Qwen2VLForConditionalGeneration(
  (visual): Qwen2VisionTransformerPretrainedModel(
    (patch_embed): PatchEmbed(
      (proj): Conv3d(3, 1280, kernel_size=(2, 14, 14), stride=(2, 14, 14), bias=False)
    )
    (rotary_pos_emb): VisionRotaryEmbedding()
    (blocks): ModuleList(
      (0-31): 32 x Qwen2VLVisionBlock(
        (norm1): LayerNorm((1280,), eps=1e-06, elementwise_affine=True)
        (norm2): LayerNorm((1280,), eps=1e-06, elementwise_affine=True)
        (attn): VisionFlashAttention2(
          (qkv): Linear(in_features=1280, out_features=3840, bias=True)
          (proj): Linear(in_features=1280, out_features=1280, bias=True)
        )
        (mlp): VisionMlp(
          (fc1): Linear(in_features=1280, out_features=5120, bias=True)
          (act): QuickGELUActivation()
          (fc2): Linear(in_features=5120, out_features=1280, bias=True)
        )
      )
    )
    (merger): PatchMerger(
      (ln_q): LayerNorm((1280,), eps=1e-06, elementwise_affine=True)
      (mlp): Sequential(
        (0): Linear(in_features=5120, out_features=5120, bias=True)
        (1): GELU(approximate='none')
        (2): Linear(in_features=5120, out_features=1536, bias=True)
      )
    )
  )
  (model): Qwen2VLModel(
    (embed_tokens): Embedding(151936, 1536)
    (layers): ModuleList(
      (0-27): 28 x Qwen2VLDecoderLayer(
        (self_attn): Qwen2VLFlashAttention2(
          (q_proj): Linear(in_features=1536, out_features=1536, bias=True)
          (k_proj): Linear(in_features=1536, out_features=256, bias=True)
          (v_proj): Linear(in_features=1536, out_features=256, bias=True)
          (o_proj): Linear(in_features=1536, out_features=1536, bias=False)
          (rotary_emb): Qwen2VLRotaryEmbedding()
        )
        (mlp): Qwen2MLP(
          (gate_proj): Linear(in_features=1536, out_features=8960, bias=False)
          (up_proj): Linear(in_features=1536, out_features=8960, bias=False)
          (down_proj): Linear(in_features=8960, out_features=1536, bias=False)
          (act_fn): SiLU()
        )
        (input_layernorm): Qwen2RMSNorm((1536,), eps=1e-06)
        (post_attention_layernorm): Qwen2RMSNorm((1536,), eps=1e-06)
      )
    )
    (norm): Qwen2RMSNorm((1536,), eps=1e-06)
    (rotary_emb): Qwen2VLRotaryEmbedding()
  )
  (lm_head): Linear(in_features=1536, out_features=151936, bias=False)
)
[2025-11-13 00:59:07,270] INFO [src.utils:10] rank1: model_backbone: qwen2_vl
[2025-11-13 00:59:08,255] INFO [src.utils:19] PeftModel(
  (base_model): LoraModel(
    (model): Qwen2VLForConditionalGeneration(
      (visual): Qwen2VisionTransformerPretrainedModel(
        (patch_embed): PatchEmbed(
          (proj): Conv3d(3, 1280, kernel_size=(2, 14, 14), stride=(2, 14, 14), bias=False)
        )
        (rotary_pos_emb): VisionRotaryEmbedding()
        (blocks): ModuleList(
          (0-31): 32 x Qwen2VLVisionBlock(
            (norm1): LayerNorm((1280,), eps=1e-06, elementwise_affine=True)
            (norm2): LayerNorm((1280,), eps=1e-06, elementwise_affine=True)
            (attn): VisionFlashAttention2(
              (qkv): Linear(in_features=1280, out_features=3840, bias=True)
              (proj): Linear(in_features=1280, out_features=1280, bias=True)
            )
            (mlp): VisionMlp(
              (fc1): Linear(in_features=1280, out_features=5120, bias=True)
              (act): QuickGELUActivation()
              (fc2): Linear(in_features=5120, out_features=1280, bias=True)
            )
          )
        )
        (merger): PatchMerger(
          (ln_q): LayerNorm((1280,), eps=1e-06, elementwise_affine=True)
          (mlp): Sequential(
            (0): Linear(in_features=5120, out_features=5120, bias=True)
            (1): GELU(approximate='none')
            (2): Linear(in_features=5120, out_features=1536, bias=True)
          )
        )
      )
      (model): Qwen2VLModel(
        (embed_tokens): Embedding(151936, 1536)
        (layers): ModuleList(
          (0-27): 28 x Qwen2VLDecoderLayer(
            (self_attn): Qwen2VLFlashAttention2(
              (q_proj): lora.Linear(
                (base_layer): Linear(in_features=1536, out_features=1536, bias=True)
                (lora_dropout): ModuleDict(
                  (default): Dropout(p=0.1, inplace=False)
                )
                (lora_A): ModuleDict(
                  (default): Linear(in_features=1536, out_features=16, bias=False)
                )
                (lora_B): ModuleDict(
                  (default): Linear(in_features=16, out_features=1536, bias=False)
                )
                (lora_embedding_A): ParameterDict()
                (lora_embedding_B): ParameterDict()
                (lora_magnitude_vector): ModuleDict(
                  (default): lora.dora.DoraLinearLayer()
                )
              )
              (k_proj): lora.Linear(
                (base_layer): Linear(in_features=1536, out_features=256, bias=True)
                (lora_dropout): ModuleDict(
                  (default): Dropout(p=0.1, inplace=False)
                )
                (lora_A): ModuleDict(
                  (default): Linear(in_features=1536, out_features=16, bias=False)
                )
                (lora_B): ModuleDict(
                  (default): Linear(in_features=16, out_features=256, bias=False)
                )
                (lora_embedding_A): ParameterDict()
                (lora_embedding_B): ParameterDict()
                (lora_magnitude_vector): ModuleDict(
                  (default): lora.dora.DoraLinearLayer()
                )
              )
              (v_proj): lora.Linear(
                (base_layer): Linear(in_features=1536, out_features=256, bias=True)
                (lora_dropout): ModuleDict(
                  (default): Dropout(p=0.1, inplace=False)
                )
                (lora_A): ModuleDict(
                  (default): Linear(in_features=1536, out_features=16, bias=False)
                )
                (lora_B): ModuleDict(
                  (default): Linear(in_features=16, out_features=256, bias=False)
                )
                (lora_embedding_A): ParameterDict()
                (lora_embedding_B): ParameterDict()
                (lora_magnitude_vector): ModuleDict(
                  (default): lora.dora.DoraLinearLayer()
                )
              )
              (o_proj): lora.Linear(
                (base_layer): Linear(in_features=1536, out_features=1536, bias=False)
                (lora_dropout): ModuleDict(
                  (default): Dropout(p=0.1, inplace=False)
                )
                (lora_A): ModuleDict(
                  (default): Linear(in_features=1536, out_features=16, bias=False)
                )
                (lora_B): ModuleDict(
                  (default): Linear(in_features=16, out_features=1536, bias=False)
                )
                (lora_embedding_A): ParameterDict()
                (lora_embedding_B): ParameterDict()
                (lora_magnitude_vector): ModuleDict(
                  (default): lora.dora.DoraLinearLayer()
                )
              )
              (rotary_emb): Qwen2VLRotaryEmbedding()
            )
            (mlp): Qwen2MLP(
              (gate_proj): Linear(in_features=1536, out_features=8960, bias=False)
              (up_proj): Linear(in_features=1536, out_features=8960, bias=False)
              (down_proj): lora.Linear(
                (base_layer): Linear(in_features=8960, out_features=1536, bias=False)
                (lora_dropout): ModuleDict(
                  (default): Dropout(p=0.1, inplace=False)
                )
                (lora_A): ModuleDict(
                  (default): Linear(in_features=8960, out_features=16, bias=False)
                )
                (lora_B): ModuleDict(
                  (default): Linear(in_features=16, out_features=1536, bias=False)
                )
                (lora_embedding_A): ParameterDict()
                (lora_embedding_B): ParameterDict()
                (lora_magnitude_vector): ModuleDict(
                  (default): lora.dora.DoraLinearLayer()
                )
              )
              (act_fn): SiLU()
            )
            (input_layernorm): Qwen2RMSNorm((1536,), eps=1e-06)
            (post_attention_layernorm): Qwen2RMSNorm((1536,), eps=1e-06)
          )
        )
        (norm): Qwen2RMSNorm((1536,), eps=1e-06)
        (rotary_emb): Qwen2VLRotaryEmbedding()
      )
      (lm_head): Linear(in_features=1536, out_features=151936, bias=False)
    )
  )
)
[2025-11-13 00:59:08,262] INFO [src.utils:10] rank0: model_backbone: qwen2_vl
[2025-11-13 00:59:08,262] INFO [src.utils:19] Loading processor from: Qwen/Qwen2-VL-2B-Instruct
[2025-11-13 00:59:12,099] INFO [src.utils:19] Loaded mmeb/MSCOCO_t2i dataset with 100000 samples
[2025-11-13 00:59:12,100] INFO [src.utils:19] 		Dataset#0 (dataset_parser=mmeb): MSCOCO_t2i, num_rows=100000, prob=50.0
…
xplicitly allowlisted by the user via `torch.serialization.add_safe_globals`. We recommend you start setting `weights_only=True` for any use case where you don't have full control of the loaded file. Please open an issue on GitHub for any issues related to this experimental feature.
  tail_embedding = torch.load(os.path.join(model_name_or_path, 'tail_token.pt'))
[2025-11-13 00:59:21,443] INFO [src.utils:19] PeftModel(
  (base_model): LoraModel(
    (model): Qwen2VLForConditionalGeneration(
      (visual): Qwen2VisionTransformerPretrainedModel(
        (patch_embed): PatchEmbed(
          (proj): Conv3d(3, 1280, kernel_size=(2, 14, 14), stride=(2, 14, 14), bias=False)
        )
        (rotary_pos_emb): VisionRotaryEmbedding()
        (blocks): ModuleList(
          (0-31): 32 x Qwen2VLVisionBlock(
            (norm1): LayerNorm((1280,), eps=1e-06, elementwise_affine=True)
            (norm2): LayerNorm((1280,), eps=1e-06, elementwise_affine=True)
            (attn): VisionFlashAttention2(
              (qkv): Linear(in_features=1280, out_features=3840, bias=True)
              (proj): Linear(in_features=1280, out_features=1280, bias=True)
            )
            (mlp): VisionMlp(
              (fc1): Linear(in_features=1280, out_features=5120, bias=True)
              (act): QuickGELUActivation()
              (fc2): Linear(in_features=5120, out_features=1280, bias=True)
            )
          )
        )
        (merger): PatchMerger(
          (ln_q): LayerNorm((1280,), eps=1e-06, elementwise_affine=True)
          (mlp): Sequential(
            (0): Linear(in_features=5120, out_features=5120, bias=True)
            (1): GELU(approximate='none')
            (2): Linear(in_features=5120, out_features=1536, bias=True)
          )
        )
      )
      (model): Qwen2VLModel(
        (embed_tokens): Embedding(151936, 1536)
        (layers): ModuleList(
          (0-27): 28 x Qwen2VLDecoderLayer(
            (self_attn): Qwen2VLFlashAttention2(
              (q_proj): lora.Linear(
                (base_layer): Linear(in_features=1536, out_features=1536, bias=True)
                (lora_dropout): ModuleDict(
                  (default): Dropout(p=0.1, inplace=False)
                )
                (lora_A): ModuleDict(
                  (default): Linear(in_features=1536, out_features=16, bias=False)
                )
                (lora_B): ModuleDict(
                  (default): Linear(in_features=16, out_features=1536, bias=False)
                )
                (lora_embedding_A): ParameterDict()
                (lora_embedding_B): ParameterDict()
                (lora_magnitude_vector): ModuleDict(
                  (default): lora.dora.DoraLinearLayer()
                )
              )
              (k_proj): lora.Linear(
                (base_layer): Linear(in_features=1536, out_features=256, bias=True)
                (lora_dropout): ModuleDict(
                  (default): Dropout(p=0.1, inplace=False)
                )
                (lora_A): ModuleDict(
                  (default): Linear(in_features=1536, out_features=16, bias=False)
                )
                (lora_B): ModuleDict(
                  (default): Linear(in_features=16, out_features=256, bias=False)
                )
                (lora_embedding_A): ParameterDict()
                (lora_embedding_B): ParameterDict()
                (lora_magnitude_vector): ModuleDict(
                  (default): lora.dora.DoraLinearLayer()
                )
              )
              (v_proj): lora.Linear(
                (base_layer): Linear(in_features=1536, out_features=256, bias=True)
                (lora_dropout): ModuleDict(
                  (default): Dropout(p=0.1, inplace=False)
                )
                (lora_A): ModuleDict(
                  (default): Linear(in_features=1536, out_features=16, bias=False)
                )
                (lora_B): ModuleDict(
                  (default): Linear(in_features=16, out_features=256, bias=False)
                )
                (lora_embedding_A): ParameterDict()
                (lora_embedding_B): ParameterDict()
                (lora_magnitude_vector): ModuleDict(
                  (default): lora.dora.DoraLinearLayer()
                )
              )
              (o_proj): lora.Linear(
                (base_layer): Linear(in_features=1536, out_features=1536, bias=False)
                (lora_dropout): ModuleDict(
                  (default): Dropout(p=0.1, inplace=False)
                )
                (lora_A): ModuleDict(
                  (default): Linear(in_features=1536, out_features=16, bias=False)
                )
                (lora_B): ModuleDict(
                  (default): Linear(in_features=16, out_features=1536, bias=False)
                )
                (lora_embedding_A): ParameterDict()
                (lora_embedding_B): ParameterDict()
                (lora_magnitude_vector): ModuleDict(
                  (default): lora.dora.DoraLinearLayer()
                )
              )
              (rotary_emb): Qwen2VLRotaryEmbedding()
            )
            (mlp): Qwen2MLP(
              (gate_proj): Linear(in_features=1536, out_features=8960, bias=False)
              (up_proj): Linear(in_features=1536, out_features=8960, bias=False)
              (down_proj): lora.Linear(
                (base_layer): Linear(in_features=8960, out_features=1536, bias=False)
                (lora_dropout): ModuleDict(
                  (default): Dropout(p=0.1, inplace=False)
                )
                (lora_A): ModuleDict(
                  (default): Linear(in_features=8960, out_features=16, bias=False)
                )
                (lora_B): ModuleDict(
                  (default): Linear(in_features=16, out_features=1536, bias=False)
                )
                (lora_embedding_A): ParameterDict()
                (lora_embedding_B): ParameterDict()
                (lora_magnitude_vector): ModuleDict(
                  (default): lora.dora.DoraLinearLayer()
                )
              )
              (act_fn): SiLU()
            )
            (input_layernorm): Qwen2RMSNorm((1536,), eps=1e-06)
            (post_attention_layernorm): Qwen2RMSNorm((1536,), eps=1e-06)
          )
        )
        (norm): Qwen2RMSNorm((1536,), eps=1e-06)
        (rotary_emb): Qwen2VLRotaryEmbedding()
      )
      (lm_head): Linear(in_features=1536, out_features=151936, bias=False)
    )
  )
)
[2025-11-13 00:59:23,225] INFO [src.trainer:350] ***** Running training *****
[2025-11-13 00:59:23,225] INFO [src.trainer:351]   Num examples = 192,000
[2025-11-13 00:59:23,225] INFO [src.trainer:352]   Num Epochs = 9,223,372,036,854,775,807
[2025-11-13 00:59:23,225] INFO [src.trainer:353]   Instantaneous batch size per device = 16
[2025-11-13 00:59:23,226] INFO [src.trainer:356]   Total train batch size (w. parallel, distributed & accumulation) = 32
…
